data.pth (torch, 9393 bytes, 6 tensors)

l1.weight f4 [8, 117]
00000000: 106c 643f 5936 263f 14e6 d0bd ad9b 513f
00000010: 6f8e afbf 63f6 563f b146 22bf 6abb c93d
00000020: 41bd 3bbf 8e50 8bbc 19a5 073f fbd1 b03e
00000030: f787 05bf a2fe e33e 3d5a 913f f7c5 043e
00000040: 3864 083f 2f7f e13d fa0a 1bbf 37ea 823e
00000050: 1f53 d73e 1288 323f b663 42be 68aa d2bd
00000060: af2c 3a3f eb9f 693f 30fa 0abc c61f 753f
00000070: 1635 2f3f 3787 ecbe 7247 b63e 82b3 623f
00000080: c63f e73e 3461 f3bd 0309 8d3e b134 473f
00000090: 357f 64bd 3bb1 6d3f a03a 6d3d bd5d 2f3f
000000a0: 696f 06bf 7ddb 40bf e9c1 4f3f 73b3 683d
000000b0: 1980 7bbf aae4 803f 640f 883f 0196 8e3f
000000c0: f9a2 633f 2f78 a7bd 8c56 2dbf 7d96 20bf
000000d0: d767 433f e4b3 36bf cb91 c53d f1e3 0f3f
000000e0: aebd b5be b053 eabe 26fb 933f 2732 60be
000000f0: 21ed 763f 5ccf 5f3f 8167 ac3e cd6f 13bf
00000100: 96a6 183f dc20 0a3f 1853 fd3e 6618 afbd
00000110: 6742 9dbe 0a16 623f b2e9 11bf 5e8c d03e
00000120: 45ac 58bf a7fa 163f 5426 9e3d 17f2 bf3d
00000130: 5da6 5abf 96e0 63bf b4c4 0e3f b60c 653d
00000140: 8179 04bf f2c3 193f 5f27 f23e 9ecd 93be
00000150: f294 5ebf fa04 203e f393 a43f 37ce c83e
00000160: d72f 813f 0dda 833e 30b6 783f 22c7 3cbf
00000170: c111 e83e ba76 cd3e 4dbe 023e e081 a6be
00000180: f9b9 cabe eaf8 4cbf 396c b9be 5b43 bb3e
00000190: 900e 013d 8589 243f 178d 113e 44e9 57bf
000001a0: 595b 573f 3aae f53e c742 6f3f dfc7 2dbf
000001b0: 3479 20bf 43dc 12bf a0eb 263f c405 d6be
000001c0: b611 80be 18ab 8ebf 7c52 a93e cb10 5bbe
000001d0: 0448 dabc a2f0 083e 568b 1d3d 8cb5 063f
000001e0: ba0b 2e3f e1ce 13bf 517d 383f e6af 5ebf
000001f0: c783 dfbe 1a38 453f 22a5 a53e 9857 153e
00000200: a41c 15be a6b0 24be 0228 9e3d 5d60 0dbf
00000210: a55a 1a3f 8a72 d53d 45af 383f 0efa b03f
00000220: 417b 333f 8f67 c0be 7af1 7b3c d18e 833e
00000230: 076d 03bf 9244 91bd ecc7 13bf 07bf c7be
00000240: e2c4 06bf f77f 22bf 8c37 833f 25c5 983e
00000250: 781b 16be 9137 84be 996c 6e3f 3595 84bf
00000260: 788e ffbe b65d 0a3f bd22 f43e ada2 96be
00000270: ed29 023f 56f8 e3be 404a 543f c574 f23b
00000280: 7da6 4a3f 55bf 64bf ad1c 0cbf 809a 08bf
00000290: 0854 07bf dc66 1abf c47d 8cbe 3ae9 4a3f
000002a0: f633 f2bd dedd 2b3f fce6 533f 4ce8 1a3f
000002b0: 7ca6 003e 0f34 7fbf f899 72be fc7c 603f
000002c0: 80cd c03e 3d6b 1bbf 5441 2ebe 811b ba3e
000002d0: a6b2 d33d 0760 5fbe 635f 6bbe fd7c 553e
000002e0: 0dea dbbe 201d b63e fd88 1d3f 087c ed3e
000002f0: 0623 a13e 1e0b 5a3f c93c 8abe d4a7 053f
00000300: 7d7e 2c3f 8164 ec3e 85be bb3e 858d 42be
00000310: e05e aebe 07ef 2b3f a3c5 d3bc 6f7b 3c3f
00000320: 354d ca3e f3b0 e13e c769 2d3f a498 e7be
00000330: 1835 f8bd 70d4 0dbf f21a b13e 239a 41be
00000340: d4a7 493f bbc4 163e a731 763e d4d4 3a3f
00000350: c6ba 49be 781a 73bf 8ab2 4f3f 51bb 8b3f
00000360: 65e0 573e 0d59 c2be ae64 28be 3d90 263f
00000370: c952 623f 89a3 363f 1f72 61bf d828 18bf
00000380: 71d3 31be 3911 a9bd e9fb 4abe 12ef acbe
00000390: 8242 4ebe 93a7 353e 6350 ffbe b7ea c0be
000003a0: 992b af3e 76ca 4bbb e247 623d 2800 a3be
000003b0: 58d8 0fbf ed25 83be f6a1 8f3f d3a3 5cbe
000003c0: 2efb b53f 13dc babf 9699 e53e a7d8 93be
000003d0: f2f2 c33d 57cc 163f 0546 fe3e 2282 073e
000003e0: ba8d 3e3f 93f7 32bf 35f5 323d caaa 06bf
000003f0: 8746 84bf f304 a2be a4b8 cd3e 17a3 6abe
0.8922739 0.6492668 -0.10200134 0.8187817 -1.3715342 0.83969706 -0.63389117 0.098501995
-0.73335654 -0.017006185 0.52986294 0.34535202 -0.5216059 0.44530207 1.1355664 0.12966143
0.5327792 0.110105865 -0.60563624 0.25569317 0.42055604 0.69738877 -0.18983349 -0.10286409
0.7272443 0.9125964 -0.008482501 0.9575161 0.6844038 -0.4619691 0.35601383 0.8855516
0.45165843 -0.118837744 0.27545938 0.77814776 -0.055785377 0.9284856 0.057917237 0.6850241
-0.5251375 -0.7533491 0.8115526 0.05681176 -0.98242337 1.0069783 1.0629697 1.1139528
0.8892055 -0.0817722 -0.67710185 -0.62729627 0.7633032 -0.7136824 0.096469484 0.56207186
-0.35496277 -0.45766973 1.156102 -0.21894132 0.9645558 0.8742578 0.33672717 -0.5759247
0.5962919 0.5395639 0.49477458 -0.085495755 -0.30714723 0.8831488 -0.56997216 0.40732092
-0.8463786 0.58976215 0.07722154 0.09372347 -0.854101 -0.89014566 0.55768895 0.055920325
-0.517479 0.60064614 0.47295663 -0.2886781 -0.8694602 0.15626898 1.285765 0.3921983
1.0092725 0.25752297 0.97152996 -0.7374135 0.45326045 0.40129644 0.12767906 -0.32520962
-0.3959501 -0.8006731 -0.3621538 0.36574826 0.03150803 0.6427234 0.14213978 -0.8434031
0.8412376 0.47984487 0.9346127 -0.67883104 -0.6268494 -0.5736734 0.65203285 -0.41801274
-0.25013512 -1.1145964 0.33070743 -0.21393125 -0.026645668 0.13373044 0.03846296 0.5262077
0.67986643 -0.5773755 0.7206622 -0.8698715 -0.43655226 0.7703873 0.3235255 0.14584196
-0.14561707 -0.16083011 0.07722475 -0.55225164 0.6029456 0.10422237 0.7214244 1.3826311
0.70109946 -0.3757901 0.015377397 0.25694898 -0.5133824 -0.07093157 -0.5772693 -0.3901293
-0.5264417 -0.6347651 1.0251327 0.2983791 -0.14658916 -0.25823644 0.93134457 -1.0358034
-0.49913383 0.5404924 0.47682753 -0.29420987 0.50845224 -0.44525403 0.82925797 0.007399174
0.7916029 -0.8935445 -0.54731256 -0.5336075 -0.52862597 -0.603132 -0.27439702 0.79262125
-0.11826317 0.6713542 0.8277433 0.60510707 0.12563509 -0.9968881 -0.23691547 0.8769071
0.37656784 -0.6071051 -0.17017108 0.3634911 0.10336809 -0.21813975 -0.22985606 0.2084846
-0.42952004 0.35569096 0.6153715 0.4638369 0.31472033 0.85173213 -0.269995 0.5220921
0.67380506 0.46170428 0.36668792 -0.18999298 -0.3405676 0.671616 -0.025851076 0.73625845
0.3951203 0.44080314 0.6773953 -0.45233643 -0.12119502 -0.5540228 0.3459087 -0.18906455
0.7877171 0.14723484 0.24042378 0.72981 -0.19700155 -0.94962263 0.81131804 1.091654
0.21081693 -0.37958565 -0.16444656 0.6506384 0.8840757 0.71343285 -0.8806476 -0.5943732
-0.17365815 -0.08255238 -0.19822659 -0.33776146 -0.20142558 0.17739706 -0.49866018 -0.37679073
0.3421295 -0.0031096018 0.055244334 -0.31836057 -0.5618949 -0.25614873 1.1221302 -0.21546869
1.4217279 -1.4598411 0.4484374 -0.2887623 0.095678225 0.5890555 0.49662796 0.13233235
0.7443501 -0.6990902 0.04369088 -0.52604353 -1.0334023 -0.316444 0.40179932 -0.22913776

l1.bias f4 [8]
00000000: dda8 993f fa72 223f 94cf 833f 470e 233f
00000010: 0461 623f 82cd 663f daf3 043f 9468 4e3f
1.2004658 0.6345669 1.0297723 0.6369366 0.88429284 0.9015733 0.5193459 0.80628324

l2.weight f4 [8, 8]
00000000: 12bd 94bf 213d e83f 1645 223e d674 7e3f
00000010: da45 e53e c4a7 d63e 34f1 3b3f a04d b73f
00000020: 8818 c1bf 6c38 e63b 906c 2840 50a4 b43f
00000030: 6e51 a43e b655 133f e8a5 503f 8a68 c03e
00000040: 9891 75bd 3140 51bf 0709 453f c733 73bf
00000050: f5d3 c13f 6c8e 43ba b173 5fbf 85cd b53e
00000060: 960e 3abf 6ba5 073f 5bb5 d93f 711e 0dbf
00000070: ee29 a43f 667b 12bf aad1 25bc 29f6 1abf
00000080: e6d4 1b40 47d7 2140 abc6 fcbf dd65 dcbe
00000090: 5a68 dc3f e56f 07bf 3dcb 11bf 4765 0040
000000a0: 0490 60bf 1b72 bbbf 7e0a 9dbe 31ad b43f
000000b0: 7336 0d40 eaad 1340 bf4b f33f c38b f93f
000000c0: 5c01 2740 d7ac a6bf dfde 563f b34b dd3f
000000d0: d162 1bbf 3a5b fa3f 6832 c53f 5fb3 82bf
000000e0: f4dc fbbe 76c7 e23e d5dc 5840 1bdd 51bf
000000f0: f5e6 bb3f 3821 283f d249 9abf 06ba d5be
-1.16202 1.8143655 0.15846667 0.9939703 0.44779855 0.4192487 0.7341492 1.4320564
-1.5085611 0.007025769 2.6316261 1.4112644 0.32093376 0.5755266 0.8150315 0.37579757
-0.059953302 -0.81738573 0.769669 -0.9500088 1.5142809 -0.0007459882 -0.87285906 0.3550836
-0.72678506 0.5298678 1.700847 -0.55124575 1.2825296 -0.5721954 -0.010120789 -0.6053186
2.4348693 2.5287645 -1.9748129 -0.43046466 1.7219346 -0.5290511 -0.5695074 2.0061815
-0.8771975 -1.4644197 -0.30672067 1.4115354 2.2064483 2.3074899 1.9007491 1.9495777
2.609458 -1.3021497 0.83933824 1.7288727 -0.60697657 1.955909 1.5406008 -1.021099
-0.4919201 0.44292802 3.3884785 -0.81978005 1.4679857 0.6567569 -1.2053778 -0.41743487

l2.bias f4 [8]
00000000: 6c95 9a3d 6782 7cbe 5fe6 39bd e112 2e3c
00000010: 1403 a53f a60d aabe c1bc 863f 9f1d 743f
0.07548031 -0.2465912 -0.045385715 0.010624618 1.2891564 -0.33213538 1.0526353 0.953577

l3.weight f4 [18, 8]
00000000: 6283 92bf 9b3d aa3e a70c fdbe 151f 743f
00000010: 1994 25c0 be66 893c ce7d 923e fd0e 9f3e
00000020: 357f f83e 85aa c83e e952 a1bf d86f 85bf
00000030: ca88 12c0 cb3d 353f 5bff 9ebe f826 cfbe
00000040: 54f6 a5bd b27c c3be 7517 4ec0 dc06 ecbf
00000050: f6ba b33e ccb4 063f de4a c5bd affe 46c0
00000060: 0de4 673f 7f91 e3bf ae68 e3bf 5822 f2bf
00000070: 821e a23f 4883 0cc0 1a66 febf f3e2 31bf
00000080: fb0a fdbf 9765 45c0 04de 87bf 49e4 8fbf
00000090: be99 dc3d 72ef 393f 1239 243f 7f06 88be
000000a0: 9e36 183f 2adc 043f a86d 00c0 f9ee 8d3f
000000b0: 4b6c ebbe eb96 883e d1bd b0bf 5770 0abf
000000c0: 25bc 603d 193c c7bf c7d2 6a3f 77e4 3fbf
000000d0: 2121 533f 9a89 343c 250c f9bf af9e 133e
000000e0: 36c1 16c0 f659 14c0 1d01 823f 7af0 853f
000000f0: 438e e73e bd0f 19c0 52c3 d8bd 4bd1 3d3f
00000100: f150 59c0 3b3f 2e3e fdd6 e7bf 92e9 1cc0
00000110: ff9d 7ebf d6aa c9be f2d3 5d3f 3a83 0d3f
00000120: b225 39c0 86cc b3bf 1bed 89bf 0e71 2abf
00000130: d5b6 063f c650 26c0 841c a53f 47fa 15c0
00000140: 48af 3ec0 42b7 023f b094 bf3e 82fd 733f
00000150: d00c 9cbf 9379 47c0 c753 953e edd1 8d3f
00000160: 9b7c eabe b106 423e 4e65 593f c335 673f
00000170: 71ff 833d 7450 fbbe 63f4 1fc0 d028 1f3f
00000180: cd1d 59bf c420 1abf 094c cc3e b1f5 c2be
00000190: 3971 61be d683 65be 39ac 18be 484e 723f
000001a0: 5353 45bf 2521 bf3e 9d1c c6bf fb0c 00c0
000001b0: 2255 bbbf 4fbd c73e 0c95 543f d955 eebf
000001c0: d2fc 613f a8a5 3abe 8a5a c1bf 1a03 d43e
000001d0: da1f 5a3e dc82 13c0 996e 57bf eb19 2f3f
000001e0: 1644 09bf e02a 12c0 a239 f2bf e80b 09c0
000001f0: 9272 7b3f 0a41 1cc0 370e d03d 2ea9 9f3e
00000200: 71f6 a7bd 1b6a a8bd 3fac 373f 8f51 a5be
00000210: 5129 73bf 2b89 373f 2cdf 6dbf 3f82 643d
00000220: a3bb c33e 2e5e 4ebd 5de7 0b3f cc06 5bc0
00000230: 38df 313d 2ae8 bf3e 7689 2ebf 22d2 4c3e
-1.1446345 0.33250126 -0.49423715 0.9535993 -2.5871642 0.016772624 0.28611606 0.31066123
0.4853455 0.39192596 -1.2603427 -1.0424757 -2.289599 0.70797414 -0.31054196 -0.40459418
-0.08103624 -0.38181072 -3.2201817 -1.8439593 0.35103577 0.52619624 -0.096334204 -3.1092947
0.9058235 -1.7778777 -1.7766321 -1.8916731 1.266556 -2.1955128 -1.9874909 -0.6948692
-1.9768976 -3.0843256 -1.0614629 -1.1241542 0.107715115 0.7263099 0.6414958 -0.26567456
0.5945834 0.51898444 -2.006693 1.1088554 -0.45981058 0.2667764 -1.3807927 -0.54077667
0.05486693 -1.5565215 0.9172787 -0.74957985 0.82472426 0.011019135 -1.9456831 0.14416002
-2.3555427 -2.3179908 1.015659 1.0464013 0.45225725 -2.3915856 -0.105841294 0.7414748
-3.3955653 0.17016308 -1.8112484 -2.451756 -0.9945983 -0.3938815 0.8665153 0.5527836
-2.8929257 -1.4046791 -1.0775484 -0.6657876 0.5262273 -2.59868 1.2899327 -2.3434007
-2.9794483 0.5106088 0.37418127 0.953087 -1.219141 -3.1167953 0.2916548 1.1079689
-0.4579819 0.18947865 0.84920204 0.9031641 0.06445206 -0.49084818 -2.4992912 0.6217165
-0.848111 -0.60206246 0.3990176 -0.38078073 -0.22015847 -0.22413573 -0.14909448 0.946507
-0.7708027 0.37329975 -1.5477482 -2.0007923 -1.4635355 0.39011618 0.8303993 -1.8619949
0.882764 -0.18227255 -1.5105755 0.41408616 0.21301213 -2.304862 -0.84153134 0.6839892
-0.53619516 -2.283867 -1.8923838 -2.1413517 0.98221695 -2.4414697 0.10158961 0.3118376
-0.08201302 -0.08223363 0.717472 -0.32288787 -0.9498492 0.71693677 -0.9291866 0.055788275
0.38229093 -0.050382785 0.5464991 -3.4222898 0.04342577 0.37481815 -0.681785 0.20002034

l3.bias f4 [18]
00000000: dbe6 c7be bc39 05bf b526 7fbe 22ee cf3e
00000010: a480 303e 48df 30bf 0b2c a53c 6f8b 86bd
00000020: bb2c 443d 4877 003f 7523 0a3e 7c08 47be
00000030: 650f cebd dec7 993d 4e6e ad3e 887d 723e
00000040: 9a44 2dbe b2a3 c4be
-0.39043316 -0.5204122 -0.2491711 0.40611368 0.17236573 -0.690907 0.020162603 -0.065695636
0.04789422 0.5018201 0.13490088 -0.1943683 -0.1006153 0.07508825 0.33873218 0.23680699
-0.169207 -0.3840614
