data.pth (torch, 10097 bytes, 6 tensors)

l1.weight f4 [8, 134]
000000 23 9d 2a bf a1 77 1b 3e 21 7e 0e 3f 02 f9 54 3f
       -0.6664602 0.15182354 0.5566121 0.83192456
000010 f0 5e 75 3f 9d 29 58 3f 1a 89 8c 3f 96 f9 7c 3f
       0.9584799 0.84438497 1.097934 0.9881834
000020 4e cd bc be 44 dd a3 3b 05 57 ff 3e 1d ce a0 be
       -0.36875385 0.005000742 0.49871078 -0.31407252
000030 56 d7 4d 3f bc 63 95 bc 1c 59 41 be 61 75 2a bf
       0.804067 -0.018236034 -0.18881649 -0.66585356
000040 dd 1f 8b bd 3e 6e b4 be 1d f9 a7 be 5c 89 8f bf
       -0.06793187 -0.35240358 -0.32807246 -1.1213794
000050 0f 06 8a be 32 cc 41 3f d1 34 7d be 98 3c 41 3f
       -0.26957747 0.757022 -0.24727179 0.75483084
000060 fc 45 5a 3f 77 ff d3 be 8a 3f 05 bf a2 02 6d 3f
       0.8526304 -0.41405842 -0.5205008 0.9258214
000070 93 68 2a bf da f0 eb be fc 2b 18 be d1 27 2c 3f
       -0.6656582 -0.46082193 -0.14860529 0.67248255
000080 8f cd 43 be 54 50 95 3f 2b df 56 be ff 7d 65 3f
       -0.19121383 1.1665139 -0.2098357 0.8964538
000090 19 58 47 bf 68 47 64 3f ed b4 fb bc 87 ca bb bc
       -0.778688 0.8917146 -0.03072592 -0.022923721
0000a0 1a cc 14 3f 36 44 28 be da cf 8b 3e cd 2d 9b 3e
       0.58123934 -0.1643227 0.27307016 0.3030838
0000b0 21 df 27 bf f2 ee 3a 3f 92 53 7b bd e7 51 20 3f
       -0.6557484 0.7302085 -0.061358996 0.62624973
0000c0 3f f1 ac be 8f b2 35 3f fe 68 2a bf e6 19 29 bf
       -0.33777806 0.70975584 -0.66566455 -0.6605514
0000d0 b0 6a 2a bf f3 8d 8f bf f5 da 6d 3f 87 07 5e bf
       -0.6656904 -1.1215194 0.92912227 -0.86730236
0000e0 86 e5 38 bf a0 84 8b 3f 2f 7c 60 bf b2 5d dc bc
       -0.72225225 1.0899849 -0.8768949 -0.026900146
0000f0 93 f6 28 3e 84 5a 2e 3e e2 89 7d 3e 6e 42 10 be
       0.1650031 0.17026716 0.2475963 -0.14087841
000100 84 db 1e bf d9 5c 3a 3e fc dc f2 be 06 c7 f3 3d
       -0.62053704 0.18199481 -0.47434223 0.11903195
000110 23 48 35 3f 71 7c 82 3f bb a2 35 bf e6 39 8d bf
       0.70813197 1.0194227 -0.7095143 -1.1033294
000120 ca d1 86 be 28 43 76 3e 20 fa 9c bd ca 0a f1 bc
       -0.2633193 0.24049056 -0.07664895 -0.02942409
000130 bd b0 9a 3f 4a 2c 2b bd ce 2d 70 3f d6 03 92 be
       1.2085186 -0.041790284 0.9381989 -0.28518552
000140 d8 38 f3 3e de 9c 73 3e 61 c1 c2 be b7 0f 15 be
       0.47504306 0.23790309 -0.3803816 -0.14556776
000150 ae da 49 bf 17 5a 72 bd 64 e1 62 bf 3b 14 14 bc
       -0.78849304 -0.059167948 -0.8862517 -0.009038026
000160 4c ca 82 be ae ae 28 bf 22 66 20 be 01 81 82 3d
       -0.25544965 -0.6589154 -0.1566396 0.06372262
000170 2e c6 71 be 1e 74 cc bd e5 7e 03 3f 54 55 88 bf
       -0.23610756 -0.09983085 0.513655 -1.065104
000180 fa 66 5b 3f 3a 1f 2f 3d 3a 1e 92 be 94 5c 2a bf
       0.85704005 0.04275439 -0.28538686 -0.66547513
000190 0b 69 71 be d8 63 2a bf 03 96 3a be b2 2f 17 bf
       -0.23575227 -0.665586 -0.18221287 -0.5905715
0001a0 85 75 1e 3f b8 1a ce be 60 2f 60 bf 8c 1d 48 3f
       0.6189807 -0.4025476 -0.8757229 0.78170085
0001b0 ac c6 8b 3f 39 42 96 be 1c 1e 25 be 68 d3 23 3f
       1.0920005 -0.293474 -0.16124767 0.63994455
0001c0 d3 9b e5 be 9f c1 c4 bc 77 08 9a 3e 9e 58 a4 be
       -0.44845447 -0.024018107 0.30084583 -0.3209886
0001d0 0b ee 1b 3f 53 4a 68 be ca 75 d2 be eb a0 46 bf
       0.609101 -0.22684602 -0.4110549 -0.7758929
0001e0 aa 6e 34 3e a1 e7 80 3f de 4e 2b bf 20 86 90 bf
       0.1762034 1.0070688 -0.66917217 -1.1290932
0001f0 b2 c4 49 bf de a2 a6 bf 52 6c 0f bd e9 0b 20 3f
       -0.7881576 -1.3018453 -0.03501541 0.62518173
000200 cd 5e 43 3f 07 ab 79 3e 4d 95 a1 3f 9b 4b 2c be
       0.7631653 0.24381648 1.2623688 -0.16825716
000210 56 61 dc be 36 d6 06 3f 36 e5 8f bf 2f 73 b8 3e
       -0.4304301 0.5267061 -1.1241825 0.36025378
000220 c1 46 b8 3e 4a 45 52 3f 84 d2 ff 3e 73 e6 a9 3f
       0.3599148 0.82136977 0.49965298 1.3273453
000230 ad 67 ba 3e 65 53 82 bf 4c ac c9 3f 3e b5 79 3f
       0.36407223 -1.01817 1.5755706 0.9754218
000240 62 f3 20 3f 2f 33 1f bf ce b3 1a bf be 75 46 3f
       0.6287137 -0.62187475 -0.6043061 0.7752341
000250 d8 c2 02 bf aa 80 24 3f 0e 70 35 3f 80 44 0e bf
       -0.5107856 0.64258826 0.70874107 -0.5557327
000260 64 d2 a2 bd ed 69 39 3f 11 11 2c 3e 95 a8 67 3e
       -0.07950285 0.72427255 0.16803385 0.22622903
000270 a7 88 f0 be 48 fb 23 3f 1a 54 2c be 10 ee 2a bf
       -0.46979257 0.640553 -0.16828957 -0.66769505
000280 f6 db f3 be 50 81 40 3f 40 6f 41 3f dc ac 98 3e
       -0.47628754 0.75197315 0.7556038 0.2981938
000290 23 de 92 3f 83 19 18 bf a0 bd 1e be 06 fd 61 bd
       1.1474041 -0.5941393 -0.15502024 -0.055172943
0002a0 e0 f7 03 bf 26 48 c1 3d 06 86 5d bf 00 f3 45 bf
       -0.515501 0.09437589 -0.8653263 -0.77323914
0002b0 c1 ef 27 3f 79 10 3b 3f f2 b1 16 bf 51 54 0f bf
       0.6560021 0.7307201 -0.58865273 -0.5598803
0002c0 23 68 bc 3e b6 95 7e bd e1 30 0c bf 51 90 19 bf
       0.367982 -0.062154494 -0.54762083 -0.59985834
0002d0 50 79 81 3f a4 ab 63 3e 41 d3 83 3c c1 e3 fd be
       1.0115147 0.22233444 0.016091945 -0.49587825
0002e0 5a e2 4a 3f 16 60 49 3f af a3 49 3f a8 4d 62 bd
       0.79251635 0.7866224 0.78765386 -0.05524984
0002f0 35 ea 1b 3e 60 de f0 be f5 eb 43 3f 8e 85 02 3f
       0.15226062 -0.4704466 0.76531917 0.5098504
000300 4d 40 0e bf 3f eb 2f 3f c4 15 d0 3e 10 80 a1 be
       -0.55566865 0.6871833 0.40641606 -0.31543016
000310 67 be ab 3e 01 1f 29 be 4b 28 26 bf ac 06 a3 bd
       0.33543703 -0.16515733 -0.6490523 -0.07960257
000320 75 e4 a2 be 37 3c 8b 3e c0 b1 40 3f 8d a7 bb be
       -0.31814924 0.27194378 0.75271225 -0.3665127
000330 81 cc cd be ad 7d 64 bd 0c 13 f0 be cc 17 72 3d
       -0.40195087 -0.055783916 -0.46889532 0.059104726
000340 19 4f 3e 3f 6a 01 f7 3e 9d 6e 20 3f 1e ef d4 be
       0.74339443 0.48243266 0.6266878 -0.41588682
000350 a1 7b 57 3f c1 b2 ab be eb 49 8c bf 49 30 8c 3e
       0.8417302 -0.33534816 -1.0960058 0.2738059
000360 8f 65 ee be d8 04 bb be e2 64 c8 3e 2a 1f d2 3e
       -0.46561858 -0.36527133 0.39139467 0.410394
000370 cf 6b 1a bd 84 14 36 3f 64 29 22 bd 73 9d 46 bf
       -0.03770047 0.71125054 -0.039590254 -0.77584
000380 63 38 88 be ca c8 1b bf b3 34 89 be ab 51 02 bf
       -0.2660552 -0.60853255 -0.2679802 -0.50905865
000390 2b b5 15 bf 67 3a 74 bf cb e8 31 3f 8a c7 f5 be
       -0.58479565 -0.95401615 0.6949584 -0.480038
0003a0 12 4c ac be b8 7f 52 bf 96 94 d7 3c 61 a1 9a bf
       -0.33651787 -0.82226133 0.026315968 -1.2080499
0003b0 65 35 86 be 9d b0 47 3f 0c fc ff be 84 52 3d bf
       -0.26212612 0.78003865 -0.49996984 -0.73954034
0003c0 39 ba f7 be 92 9f 1a bf 41 63 86 bf d9 f3 27 be
       -0.48384264 -0.60399735 -1.049904 -0.16401614
0003d0 f2 fa 3b 3c 64 f7 5f 3f e8 d0 ba be 14 b4 7f 3f
       0.011473404 0.87486863 -0.36487508 0.9988415
0003e0 36 e8 ae 3e 7d 6a e5 be 3f 5e 2e 3f c9 af f6 be
       0.34161538 -0.44807807 0.6811256 -0.48180988
0003f0 33 72 35 bc 26 8c e0 3e 63 54 ca 3e 77 d2 c1 3e
       -0.0110745905 0.43856925 0.39517507 0.37855884

l1.bias f4 [8]
000000 d1 58 2a 3f 85 af 9a 3f 39 ee 78 3f f5 80 5a 3f
       0.66541773 1.2084814 0.972385 0.8535302
000010 23 a4 59 3f e1 dd 28 3f 3b a5 b5 3f 42 29 98 3f
       0.8501608 0.6596356 1.4191049 1.1887591

l2.weight f4 [8, 8]
000000 72 0f 0f be f8 9d 84 be 25 49 b1 be 38 0b e0 3d
       -0.13970736 -0.2590177 -0.34626117 0.1093964
000010 f8 7d 41 3d 19 14 a9 be d3 69 a6 be 00 30 99 b8
       0.047239274 -0.33023146 -0.32502612 -7.304549e-05
000020 e0 b3 27 40 ec 0b 39 40 8c 74 e6 be b8 0c 99 bd
       2.6203537 2.8913527 -0.45010793 -0.07473129
000030 93 68 41 3f 27 21 d3 bf 27 a7 09 3f 66 16 2e 3d
       0.7555019 -1.6494492 0.5377068 0.04250183
000040 90 a6 3d bf 2f 9b 37 bf 72 1c 86 3f 72 e0 32 c0
       -0.7408228 -0.71721166 1.0477431 -2.794949
000050 29 9c a0 bd 01 dc 2b 40 55 f1 13 40 4a cd c5 3f
       -0.07842285 2.685303 2.3116047 1.5453274
000060 05 7b 97 3f f8 9b 51 bf 1e de c0 3f 95 6f 8d 3f
       1.1834418 -0.81878614 1.5067785 1.1049677
000070 d7 75 30 3f 35 62 a1 bf 9c b9 63 3f fd 54 cd be
       0.6892981 -1.2608095 0.8895509 -0.40103903
000080 34 6f ad 3d 36 83 71 3d c2 a0 40 40 01 7a 77 3e
       0.08468476 0.058963023 3.0098119 0.24167635
000090 ce e4 15 40 fe b4 2e bf 57 65 a8 3f 46 7f 8f bf
       2.3420901 -0.6824492 1.3155926 -1.1210716
0000a0 f8 f1 f1 bf 95 d4 be 3f 01 00 09 3f b1 6a 15 40
       -1.8901968 1.4908625 0.5351563 2.334637
0000b0 6d fd 19 c0 c9 95 80 bd 5d 15 99 3f ec 22 3f 3f
       -2.406093 -0.06278569 1.1959645 0.7466266
0000c0 bb a9 34 c0 d0 ac 43 bf 67 27 89 3f 5f 3c 8e 3f
       -2.8228595 -0.76435566 1.071515 1.1112174
0000d0 7b ca b0 3f 15 4b f8 3d be 8d cb 3f 03 34 3a 3f
       1.3811792 0.12123696 1.5902631 0.72735614
0000e0 a0 33 c6 3f d5 b3 fe bf 4a d0 89 3f df a1 c7 3f
       1.5484505 -1.989863 1.076669 1.5596274
0000f0 9a 0c 81 bf 69 06 07 40 49 a0 0b 3f 17 53 29 40
       -1.0081971 2.1097662 0.5454145 2.6456964

l2.bias f4 [8]
000000 99 8a 12 be f9 8a 71 3f c3 fe 96 3e ee ea ab be
       -0.14310683 0.9435268 0.29491243 -0.33577675
000010 fb 57 2e 3e f6 02 84 3f e4 39 9a 3e 63 a1 b6 3e
       0.1702575 1.0313404 0.30122292 0.35670003

l3.weight f4 [18, 8]
000000 4c 19 05 3e 02 13 ab bf 9c 00 15 3f 37 27 be 3e
       0.12997931 -1.3365176 0.58204055 0.37139294
000010 b5 9d 3c 3e 58 09 12 c0 0f ec 55 be 9a a6 f7 3e
       0.18419535 -2.2818203 -0.2089083 0.48369294
000020 54 d1 17 be f8 d2 cb be 8a 95 b7 bf f7 cf 37 3e
       -0.14825946 -0.39809394 -1.4342511 0.17950426
000030 6e 35 4a be 25 aa 47 3f 83 58 ad be fd 4e 11 3d
       -0.19746944 0.77993995 -0.33856592 0.03547572
000040 a4 8d cf 3d 54 50 65 3e 38 e1 ac bf 6b fb 10 c0
       0.10134438 0.22393924 -1.3506231 -2.2653453
000050 f9 1d 2c bf 60 dc ac 3f d4 e5 e5 bd 2a ab eb bf
       -0.67233235 1.3504753 -0.11225477 -1.841161
000060 f8 b7 78 be ac e3 08 3e 3b f3 2d c0 83 14 a2 3f
       -0.24288929 0.133681 -2.7179706 1.266251
000070 c7 13 89 3f 71 2c c9 bf 62 20 73 bf d1 da e8 bf
       1.070916 -1.5716687 -0.9497129 -1.8191777
000080 81 91 b3 be 8f b1 12 c0 59 85 31 3f 0b 9f 0c c0
       -0.35071948 -2.2920873 0.693441 -2.1972072
000090 94 30 51 bd 0f b5 fb 3e 0a de 5d 3e 8e 35 19 3e
       -0.05107172 0.49161574 0.21666732 0.14961836
0000a0 36 5d 74 3e 1e be db be 4b b3 1a 3e e7 92 58 be
       0.23863682 -0.42918485 0.15107457 -0.21149789
0000b0 62 d8 f3 3e f7 9f 16 bf 2c 11 ec 3e f4 ae fd be
       0.47626024 -0.58837837 0.4610685 -0.4954754
0000c0 00 88 44 ba 26 34 3d be f8 7a 1e 3e 12 eb 51 bd
       -0.0007497072 -0.18476924 0.15476596 -0.05124957
0000d0 d8 84 3c 3f fa 62 f5 bf ae 83 42 3f 92 dc 19 c0
       0.73640203 -1.917083 0.7598218 -2.4040875
0000e0 90 53 99 3d 98 9e 34 be ed 4d 22 3f df 7d 87 bf
       0.074866414 -0.17638624 0.63400155 -1.0585288
0000f0 b9 30 5f bf 74 f8 b2 3e 54 ea 1b be c4 ba fb 3c
       -0.8718372 0.3495518 -0.15226108 0.030728705
000100 dc 03 5c be 0c a2 0f c0 9d 30 7a 3f 54 7f 1f c0
       -0.21485847 -2.2442656 0.9773043 -2.4921465
000110 04 ba c9 bd e2 ea 00 c0 4c 67 68 3f 5a 76 79 3e
       -0.09849933 -2.014336 0.9078262 0.24361554
000120 06 f1 40 3e f5 e7 2f be 07 37 24 c0 87 9f b8 be
       0.18841943 -0.17178328 -2.5658586 -0.3605921
000130 c4 3c 66 3f 4c a3 44 3e 3a ff 5c 3f 15 db d7 bf
       0.8993647 0.19202918 0.86326945 -1.6863734
000140 06 8e 45 3e 61 ce 19 c0 0a 6f a4 be e9 b7 c4 3e
       0.19292459 -2.4032214 -0.32115966 0.38421562
000150 f6 76 85 be 36 76 a3 3d 40 d9 1f 3f 96 16 e3 3e
       -0.26067322 0.07981531 0.6244087 0.4435317
000160 f0 6a 1f 3d 04 e4 e4 3e 82 f8 c4 bf d1 90 42 bf
       0.038920343 0.44705212 -1.5388339 -0.7600222
000170 95 16 04 c0 90 00 f4 3e 7f a7 14 c0 5d 1e 36 3f
       -2.0638783 0.4765668 -2.3227232 0.7114008
000180 71 eb 85 3e 2b 81 14 c0 c4 7e 6a bf 3c bf a7 bf
       0.2615619 -2.3203838 -0.9159968 -1.3105235
000190 58 ae 16 c0 36 75 93 3f e6 34 3e 3f d2 d6 5b 3f
       -2.354391 1.1520145 0.74299467 0.85874665
0001a0 b2 f0 65 3e b0 08 13 bf dc 44 7c bf 33 72 7c 3f
       0.22455099 -0.5743513 -0.9854257 0.98611754
0001b0 4c 27 97 3e cc ec a8 bf ab c8 d9 be f9 15 22 3f
       0.2952217 -1.3197265 -0.4253591 0.6331478
0001c0 ec eb 1b be cc 71 17 c0 da b1 8a 3f 39 24 42 c0
       -0.15226716 -2.3663206 1.0835526 -3.0334609
0001d0 c7 c4 35 c0 2d 32 f6 3e f8 b1 85 3c 89 6c 11 3f
       -2.8401353 0.48085156 0.016320214 0.56806237
0001e0 66 cc 58 3e 03 b8 8a 3c 77 0e 47 3f 45 a2 c0 bf
       0.21171722 0.016933447 0.77756447 -1.5049521
0001f0 9b d6 d7 bf 0a 53 5b bf c8 5d fe bf 48 c8 48 3f
       -1.6862367 -0.8567358 -1.987237 0.78430605
000200 70 2e 41 bd 64 72 8b 3f 0c c4 d8 bf 3d 73 0f bf
       -0.047163427 1.0894284 -1.6934829 -0.56035215
000210 e5 c4 ef bf 2b 07 2f be 13 99 8a bf e5 ab cf bf
       -1.8731962 -0.17092578 -1.0827965 -1.6224333
000220 10 ce 41 3d f8 31 36 3f 18 df da 3e 73 13 1b bf
       0.047315657 0.71169996 0.42748332 -0.6057655
000230 2e 97 af 3e 06 40 f5 bf 9d 8b 57 bf d1 91 03 bf
       0.34295028 -1.9160163 -0.8419741 -0.51394373

l3.bias f4 [18]
000000 98 bf f0 bd f4 47 5a 3e c5 6f 3d 3e c3 82 89 3e
       -0.117552936 0.2131651 0.18499668 0.26857576
000010 d2 5e f8 be f1 77 53 be ba 76 66 be 95 5a 4e 3d
       -0.48509842 -0.20651223 -0.22506228 0.050379355
000020 09 8c a1 3d cc 37 d4 3d 37 24 3c bf 70 df 9b 3e
       0.07888038 0.10362205 -0.7349276 0.30443907
000030 c9 b8 b6 3e 86 dc 82 be 63 f3 39 be 23 f5 a4 3e
       0.35687855 -0.2555887 -0.18159251 0.32218274
000040 c0 fa d2 3e f9 4e b1 3e
       0.41206932 0.34630564
